…

Namespace(data_path='./data/Pymatgen_Wrapped/1/', train_name='RetryViT', model_path=None, learning_rate=0.05, min_learning_rate=1e-06, start_scheduler_step=0, weight_decay=1e-06, momentum=0.99, batch_size=256, class_num=230, epoch_num=60, model_save_path='./checkpoints/RetryViT', device='3', scheduler_T=None, num_workers=20, log_name='log/train//train_RetryViT_2024_08_08_16:31:42.log')
[2024-08-08 16:31:51,360][train.py][line:65][INFO] ---------------model---------------
RetryViT(
  (ViT): ViT(
    (to_patch_embedding): Sequential(
      (0): Rearrange('b c (n p) -> b n (p c)', p=25)
      (1): Linear(in_features=50, out_features=128, bias=True)
    )
    (dropout): Dropout(p=0.05, inplace=False)
    (transformer): Transformer(
      (layers): ModuleList(
        (0-31): 32 x ModuleList(
          (0): Attention(
            (norm): LayerNorm((128,), eps=1e-05, elementwise_affine=True)
            (attend): Softmax(dim=-1)
            (dropout): Dropout(p=0.05, inplace=False)
            (to_qkv): Linear(in_features=128, out_features=48, bias=False)
            (to_out): Sequential(
              (0): Linear(in_features=16, out_features=128, bias=True)
              (1): Dropout(p=0.05, inplace=False)
            )
          )
          (1): FeedForward(
            (net): Sequential(
              (0): LayerNorm((128,), eps=1e-05, elementwise_affine=True)
              (1): Linear(in_features=128, out_features=256, bias=True)
              (2): GELU(approximate='none')
              (3): Dropout(p=0.05, inplace=False)
              (4): Linear(in_features=256, out_features=128, bias=True)
              (5): Dropout(p=0.05, inplace=False)
            )
          )
        )
      )
    )
    (mlp_cls): Sequential(
      (0): LayerNorm((128,), eps=1e-05, elementwise_affine=True)
      (1): Linear(in_features=128, out_features=230, bias=True)
    )
    (mlp_token): Sequential(
      (0): LayerNorm((128,), eps=1e-05, elementwise_affine=True)
      (1): Linear(in_features=128, out_features=128, bias=True)
      (2): LeakyReLU(negative_slope=0.01)
      (3): Linear(in_features=128, out_features=128, bias=True)
      (4): LeakyReLU(negative_slope=0.01)
      (5): Linear(in_features=128, out_features=50, bias=True)
      (6): Rearrange('b n (p c) -> b c (n p)', p=25)
    )
  )
)
[2024-08-08 16:31:51,360][train.py][line:66][INFO] ---------------device---------------
cuda:3
[2024-08-08 16:31:51,360][train.py][line:67][INFO] ---------------optimizer---------------
AdamW (
Parameter Group 0
    amsgrad: False
    betas: (0.9, 0.999)
    capturable: False
    differentiable: False
…
