…
Namespace(data_path='./data/Pymatgen_Wrapped/0', train_name='AttDistil', model_path=None, learning_rate=0.0001, min_learning_rate=1e-06, start_scheduler_step=30, weight_decay=1e-06, momentum=0.99, batch_size=96, class_num=230, epoch_num=200, model_save_path='/data/ylh/MyExps/MOFV2/AttDistil', device='2,3,4,5,6,7', scheduler_T=None, num_workers=20, refer_model_path='./checkpoints/RawConv/RawConv_epoch_93.pth', log_name='log/train//train_AttDistil_2024_08_29_09:58:22.log')
[2024-08-29 09:58:31,035][train.py][line:78][INFO] ---------------model---------------
DataParallel(
  (module): AttDistil(
    (embed): Embedding(8500, 16)
    (encoders): ModuleList(
      (0-23): 24 x EncoderLayer(
        (mha): MultiHeadAttention(
          (WQ): Linear(in_features=160, out_features=160, bias=True)
          (WK): Linear(in_features=160, out_features=160, bias=True)
          (WV): Linear(in_features=160, out_features=160, bias=True)
          (scaled_dot_product_attn): ScaledDotProductAttention()
          (linear): Linear(in_features=160, out_features=160, bias=True)
        )
        (dropout1): Dropout(p=0, inplace=False)
        (layernorm1): LayerNorm((160,), eps=1e-06, elementwise_affine=True)
        (ffn): FeedForwardNetwork(
          (linear1): Linear(in_features=160, out_features=256, bias=True)
          (linear2): Linear(in_features=256, out_features=160, bias=True)
          (relu): LeakyReLU(negative_slope=0.01)
        )
        (dropout2): Dropout(p=0, inplace=False)
        (layernorm2): LayerNorm((160,), eps=1e-06, elementwise_affine=True)
      )
    )
    (to_features): Linear(in_features=136000, out_features=1024, bias=True)
    (to_cls): Linear(in_features=1024, out_features=230, bias=True)
  )
)
[2024-08-29 09:58:31,035][train.py][line:79][INFO] ---------------device---------------
cuda:2
[2024-08-29 09:58:31,036][train.py][line:80][INFO] ---------------optimizer---------------
AdamW (
Parameter Group 0
    amsgrad: False
    betas: (0.9, 0.999)
    capturable: False
    differentiable: False
    eps: 1e-08
    foreach: None
    fused: None
…
