[2024-08-12 19:30:00,269][train.py][line:80][INFO] ---------------args---------------
Namespace(data_path='./data/Pymatgen_Wrapped_Short/0', train_name='AtBase', model_path=None, learning_rate=0.005, min_learning_rate=1e-06, start_scheduler_step=0, weight_decay=1e-06, momentum=0.99, batch_size=128, class_num=230, epoch_num=100, model_save_path='./checkpoints/AtBase', device='0', scheduler_T=None, num_workers=30, log_name='log/train//train_AtBase_2024_08_12_19:29:25.log')
[2024-08-12 19:30:00,276][train.py][line:81][INFO] ---------------model---------------
AtBase(
  (embed): Embedding(850, 64)
  (transformer_encoders): ModuleList(
    (0-23): 24 x EncoderLayer(
      (mha): MultiHeadAttention(
        (WQ): Linear(in_features=64, out_features=64, bias=True)
        (WK): Linear(in_features=64, out_features=64, bias=True)
        (WV): Linear(in_features=64, out_features=64, bias=True)
        (scaled_dot_product_attn): ScaledDotProductAttention()
        (linear): Linear(in_features=64, out_features=64, bias=True)
      )
      (dropout1): Dropout(p=0.1, inplace=False)
      (layernorm1): LayerNorm((64,), eps=1e-06, elementwise_affine=True)
      (ffn): FeedForwardNetwork(
        (linear1): Linear(in_features=64, out_features=256, bias=True)
        (linear2): Linear(in_features=256, out_features=64, bias=True)
        (relu): LeakyReLU(negative_slope=0.01)
      )
      (dropout2): Dropout(p=0.1, inplace=False)
      (layernorm2): LayerNorm((64,), eps=1e-06, elementwise_affine=True)
    )
  )
  (cls): Linear(in_features=54400, out_features=230, bias=True)
)
[2024-08-12 19:30:00,276][train.py][line:82][INFO] ---------------device---------------
cuda:0
[2024-08-12 19:30:00,276][train.py][line:83][INFO] ---------------optimizer---------------
AdamW (
Parameter Group 0
    amsgrad: False
    betas: (0.9, 0.999)
    capturable: False
    differentiable: False
    eps: 1e-08
    foreach: None
    fused: None
…
