…
line:68][INFO] ---------------args---------------
Namespace(data_path='./data/Pymatgen_Wrapped/0', train_name='BackViT', model_path=None, learning_rate=0.0005, min_learning_rate=1e-06, start_scheduler_step=0, weight_decay=1e-06, momentum=0.99, batch_size=256, class_num=230, epoch_num=200, model_save_path='/data/ylh/MyExps/MOFV2/checkpoints/BackViT', device='1,3,5,7', scheduler_T=None, num_workers=20, log_name='log/train//train_BackViT_2024_09_12_10:45:49.log')
[2024-09-12 10:45:55,450][train.py][line:69][INFO] ---------------model---------------
DataParallel(
  (module): RetryViT(
    (project): Linear(in_features=40, out_features=128, bias=True)
    (transformers): TransformerEncoder(
      (positionEnbeding): PositionEmbedding()
      (encoder_layers): ModuleList(
        (0-31): 32 x EncoderLayer(
          (mha): MultiHeadAttention(
            (WQ): Linear(in_features=128, out_features=128, bias=True)
            (WK): Linear(in_features=128, out_features=128, bias=True)
            (WV): Linear(in_features=128, out_features=128, bias=True)
            (scaled_dot_product_attn): ScaledDotProductAttention()
            (linear): Linear(in_features=128, out_features=128, bias=True)
          )
          (dropout1): Dropout(p=0, inplace=False)
          (layernorm1): LayerNorm((128,), eps=1e-06, elementwise_affine=True)
          (ffn): FeedForwardNetwork(
            (linear1): Linear(in_features=128, out_features=512, bias=True)
            (linear2): Linear(in_features=512, out_features=128, bias=True)
            (relu): LeakyReLU(negative_slope=0.01)
          )
          (dropout2): Dropout(p=0, inplace=False)
          (layernorm2): LayerNorm((128,), eps=1e-06, elementwise_affine=True)
        )
      )
    )
    (cls): Linear(in_features=128, out_features=230, bias=True)
  )
)
[2024-09-12 10:45:55,450][train.py][line:70][INFO] ---------------device---------------
cuda:1
[2024-09-12 10:45:55,450][train.py][line:71][INFO] ---------------optimizer---------------
AdamW (
Parameter Group 0
    amsgrad: False
    betas: (0.9, 0.999)
    capturable: False
    differentiable: False
    eps: 1e-08
    foreach: None
    fused: None
…
