…
ne:76][INFO] ---------------args---------------
Namespace(data_path='./data/Pymatgen_Wrapped/2', train_name='AtLSmall', model_path=None, learning_rate=0.0005, min_learning_rate=1e-06, start_scheduler_step=10, weight_decay=1e-06, momentum=0.99, batch_size=384, class_num=230, epoch_num=200, model_save_path='/data/ylh/MyExps/MOFV2/checkpoints/AtLSmall', device='4,5,6,7', scheduler_T=None, num_workers=20, log_name='log/train//train_AtLSmall_2024_09_17_17:11:07.log')
[2024-09-17 17:11:12,017][train.py][line:77][INFO] ---------------model---------------
DataParallel(
  (module): AtLSmall(
    (embed): Embedding(8501, 31, padding_idx=0)
    (att): TransformerEncoder(
      (positionEnbeding): PositionEmbedding()
      (encoder_layers): ModuleList(
        (0-7): 8 x EncoderLayer(
          (mha): MultiHeadAttention(
            (WQ): Linear(in_features=320, out_features=320, bias=True)
            (WK): Linear(in_features=320, out_features=320, bias=True)
            (WV): Linear(in_features=320, out_features=320, bias=True)
            (scaled_dot_product_attn): ScaledDotProductAttention()
            (linear): Linear(in_features=320, out_features=320, bias=True)
          )
          (dropout1): Dropout(p=0.0, inplace=False)
          (layernorm1): LayerNorm((320,), eps=1e-06, elementwise_affine=True)
          (ffn): FeedForwardNetwork(
            (linear1): Linear(in_features=320, out_features=512, bias=True)
            (linear2): Linear(in_features=512, out_features=320, bias=True)
            (relu): LeakyReLU(negative_slope=0.01)
          )
          (dropout2): Dropout(p=0.0, inplace=False)
          (layernorm2): LayerNorm((320,), eps=1e-06, elementwise_affine=True)
        )
      )
    )
    (cls): Sequential(
      (0): Linear(in_features=320, out_features=256, bias=True)
      (1): Linear(in_features=256, out_features=230, bias=True)
    )
  )
)
[2024-09-17 17:11:12,018][train.py][line:78][INFO] ---------------device---------------
cuda:4
[2024-09-17 17:11:12,018][train.py][line:79][INFO] ---------------optimizer---------------
AdamW (
Parameter Group 0
    amsgrad: False
    betas: (0.9, 0.999)
    capturable: False
    differentiable: False
    eps: 1e-08
    foreach: None
    fused: None
…
