…
][line:76][INFO] ---------------args---------------
Namespace(data_path='./data/Pymatgen_Wrapped_Short/0/', train_name='AtLV3', model_path=None, learning_rate=0.0005, min_learning_rate=1e-06, start_scheduler_step=10, weight_decay=1e-06, momentum=0.99, batch_size=1024, class_num=230, epoch_num=200, model_save_path='/data/ylh/MyExps/MOFV2/checkpoints/AtLV3', device='4,5,6,7', scheduler_T=None, num_workers=20, log_name='log/train//train_AtLV3_2024_09_18_18:39:34.log')
[2024-09-18 18:39:38,952][train.py][line:77][INFO] ---------------model---------------
DataParallel(
  (module): AtLV3(
    (embed): Embedding(851, 63)
    (att): TransformerEncoder(
      (positionEnbeding): PositionEmbedding()
      (encoder_layers): ModuleList(
        (0-7): 8 x EncoderLayer(
          (mha): MultiHeadAttention(
            (WQ): Linear(in_features=64, out_features=64, bias=True)
            (WK): Linear(in_features=64, out_features=64, bias=True)
            (WV): Linear(in_features=64, out_features=64, bias=True)
            (scaled_dot_product_attn): ScaledDotProductAttention()
            (linear): Linear(in_features=64, out_features=64, bias=True)
          )
          (dropout1): Dropout(p=0, inplace=False)
          (layernorm1): LayerNorm((64,), eps=1e-06, elementwise_affine=True)
          (ffn): FeedForwardNetwork(
            (linear1): Linear(in_features=64, out_features=128, bias=True)
            (linear2): Linear(in_features=128, out_features=64, bias=True)
            (relu): LeakyReLU(negative_slope=0.01)
          )
          (dropout2): Dropout(p=0, inplace=False)
          (layernorm2): LayerNorm((64,), eps=1e-06, elementwise_affine=True)
        )
      )
    )
    (cls): Sequential(
      (0): Linear(in_features=64, out_features=230, bias=True)
    )
  )
)
[2024-09-18 18:39:38,952][train.py][line:78][INFO] ---------------device---------------
cuda:4
[2024-09-18 18:39:38,952][train.py][line:79][INFO] ---------------optimizer---------------
AdamW (
Parameter Group 0
    amsgrad: False
    betas: (0.9, 0.999)
    capturable: False
    differentiable: False
    eps: 1e-08
    foreach: None
    fused: None
…
