…
4-09-16 18:17:22,426][train.py][line:74][INFO] ---------------args---------------
Namespace(data_path='./data/Pymatgen_Wrapped/2', train_name='AtLV2', model_path=None, learning_rate=0.0005, min_learning_rate=1e-05, start_scheduler_step=10, weight_decay=1e-06, momentum=0.99, batch_size=64, class_num=230, epoch_num=200, model_save_path='./checkpoints/AtLV2', device='0,1,2,3', scheduler_T=None, num_workers=30, log_name='log/train//train_AtLV2_2024_09_16_18:17:18.log')
[2024-09-16 18:17:22,427][train.py][line:75][INFO] ---------------model---------------
DataParallel(
  (module): AtLV2(
    (embed): Embedding(8501, 63, padding_idx=0)
    (att): TransformerEncoder(
      (positionEnbeding): PositionEmbedding()
      (encoder_layers): ModuleList(
        (0-7): 8 x EncoderLayer(
          (mha): MultiHeadAttention(
            (WQ): Linear(in_features=64, out_features=64, bias=True)
            (WK): Linear(in_features=64, out_features=64, bias=True)
            (WV): Linear(in_features=64, out_features=64, bias=True)
            (scaled_dot_product_attn): ScaledDotProductAttention()
            (linear): Linear(in_features=64, out_features=64, bias=True)
          )
          (dropout1): Dropout(p=0, inplace=False)
          (layernorm1): LayerNorm((64,), eps=1e-06, elementwise_affine=True)
          (ffn): FeedForwardNetwork(
            (linear1): Linear(in_features=64, out_features=256, bias=True)
            (linear2): Linear(in_features=256, out_features=64, bias=True)
            (relu): LeakyReLU(negative_slope=0.01)
          )
          (dropout2): Dropout(p=0, inplace=False)
          (layernorm2): LayerNorm((64,), eps=1e-06, elementwise_affine=True)
        )
      )
    )
    (cls): Sequential(
      (0): Linear(in_features=64, out_features=128, bias=True)
      (1): Linear(in_features=128, out_features=230, bias=True)
    )
  )
)
[2024-09-16 18:17:22,427][train.py][line:76][INFO] ---------------device---------------
cuda:0
[2024-09-16 18:17:22,427][train.py][line:77][INFO] ---------------optimizer---------------
AdamW (
Parameter Group 0
    amsgrad: False
    betas: (0.9, 0.999)
    capturable: False
    differentiable: False
    eps: 1e-08
    foreach: None
    fused: None
…
