…
------------args---------------
Namespace(data_path='./data/Pymatgen_Wrapped/0', train_name='HopeV1_AttOnly', model_path=None, learning_rate=0.0005, min_learning_rate=1e-06, start_scheduler_step=20, weight_decay=1e-06, momentum=0.99, batch_size=384, class_num=230, epoch_num=200, model_save_path='/data/ylh/MyExps/MOFV2/checkpoints/HopeV1AttOnly', device='2', scheduler_T=None, num_workers=20, log_name='log/train//train_HopeV1_AttOnly_2024_09_25_16:14:23.log')
[2024-09-25 16:14:29,123][train.py][line:81][INFO] ---------------model---------------
HopeV1AttOnly(
  (att): AttentionModule(
    (embed): Embedding(850, 47)
    (patch_conv): PatchConvModule(
      (conv): Sequential(
        (0): Conv2d(1, 2, kernel_size=(1, 3), stride=(1, 1), padding=(0, 1))
        (1): AvgPool2d(kernel_size=(1, 2), stride=(1, 2), padding=0)
        (2): Conv2d(2, 4, kernel_size=(1, 3), stride=(1, 1), padding=(0, 1))
        (3): AvgPool2d(kernel_size=(1, 2), stride=(1, 2), padding=(0, 1))
        (4): Conv2d(4, 8, kernel_size=(1, 3), stride=(1, 1), padding=(0, 1))
        (5): AvgPool2d(kernel_size=(1, 2), stride=(1, 2), padding=(0, 1))
        (6): Conv2d(8, 16, kernel_size=(1, 3), stride=(1, 1), padding=(0, 1))
        (7): AvgPool2d(kernel_size=(1, 2), stride=(1, 2), padding=0)
      )
    )
    (att): TransformerEncoder(
      (positionEnbeding): PositionEmbedding()
      (encoder_layers): ModuleList(
        (0-7): 8 x EncoderLayer(
          (mha): MultiHeadAttention(
            (WQ): Linear(in_features=64, out_features=64, bias=True)
            (WK): Linear(in_features=64, out_features=64, bias=True)
            (WV): Linear(in_features=64, out_features=64, bias=True)
            (scaled_dot_product_attn): ScaledDotProductAttention()
            (linear): Linear(in_features=64, out_features=64, bias=True)
          )
          (dropout1): Dropout(p=0.2, inplace=False)
          (layernorm1): LayerNorm((64,), eps=1e-06, elementwise_affine=True)
          (ffn): FeedForwardNetwork(
            (linear1): Linear(in_features=64, out_features=256, bias=True)
            (linear2): Linear(in_features=256, out_features=64, bias=True)
            (relu): LeakyReLU(negative_slope=0.01)
          )
          (dropout2): Dropout(p=0.2, inplace=False)
          (layernorm2): LayerNorm((64,), eps=1e-06, elementwise_affine=True)
        )
      )
    )
  )
  (cls): Sequential(
    (0): Linear(in_features=64, out_features=128, bias=True)
    (1): Linear(in_features=128, out_features=230, bias=True)
  )
)
[2024-09-25 16:14:29,123][train.py][line:82][INFO] ---------------device---------------
cuda:2
[2024-09-25 16:14:29,124][train.py][line:83][INFO] ---------------optimizer---------------
AdamW (
Parameter Group 0
    amsgrad: False
    betas: (0.9, 0.999)
    capturable: False
    differentiable: False
    eps: 1e-08
    foreach: None
    fused: None
…
