…
----------
Namespace(data_path='./data/Pymatgen_Wrapped_Short/0', train_name='AtLBase_extend', model_path='./checkpoints/AtLBase/AtLBase_epoch_5.pth', learning_rate=0.01, min_learning_rate=0.001, start_scheduler_step=0, weight_decay=0.0, momentum=0.99, batch_size=1024, class_num=230, epoch_num=100, model_save_path='./checkpoints/AtLBase_extend', device='0,1,2,3', scheduler_T=None, num_workers=30, log_name='log/train//train_AtLBase_extend_2024_08_13_20:53:56.log')
[2024-08-13 20:54:02,805][train.py][line:84][INFO] ---------------model---------------
DataParallel(
  (module): AtLBase(
    (embed): Embedding(850, 64)
    (encoders): ModuleList(
      (0-23): 24 x EncoderLayer(
        (att): Attention(
          (WQ): Linear(in_features=64, out_features=64, bias=True)
          (WK): Linear(in_features=64, out_features=64, bias=True)
          (WV): Linear(in_features=64, out_features=64, bias=True)
          (linear): Linear(in_features=64, out_features=64, bias=True)
        )
        (dropout1): Dropout(p=0.05, inplace=False)
        (layernorm1): LayerNorm((64,), eps=1e-06, elementwise_affine=True)
        (ffn): FeedForwardNetwork(
          (linear1): Linear(in_features=64, out_features=256, bias=True)
          (linear2): Linear(in_features=256, out_features=64, bias=True)
          (relu): LeakyReLU(negative_slope=0.01)
        )
        (dropout2): Dropout(p=0.05, inplace=False)
        (layernorm2): LayerNorm((64,), eps=1e-06, elementwise_affine=True)
      )
    )
    (cls): Linear(in_features=54400, out_features=230, bias=True)
  )
)
[2024-08-13 20:54:02,805][train.py][line:85][INFO] ---------------device---------------
cuda:0
[2024-08-13 20:54:02,805][train.py][line:86][INFO] ---------------optimizer---------------
AdamW (
Parameter Group 0
    amsgrad: False
    betas: (0.9, 0.999)
    capturable: False
    differentiable: False
    eps: 1e-08
    foreach: None
    fused: None
…
