…
8 15:08:27,262][train.py][line:76][INFO] ---------------args---------------
Namespace(data_path='./data/Pymatgen_Wrapped/2', train_name='AtL_4embed', model_path=None, learning_rate=0.0005, min_learning_rate=1e-06, start_scheduler_step=10, weight_decay=1e-06, momentum=0.99, batch_size=512, class_num=230, epoch_num=200, model_save_path='/data/ylh/MyExps/MOFV2/checkpoints/AtL_4embed', device='3', scheduler_T=None, num_workers=20, log_name='log/train//train_AtL_4embed_2024_09_18_15:08:22.log')
[2024-09-18 15:08:27,263][train.py][line:77][INFO] ---------------model---------------
AtLSmall(
  (embed): Embedding(8501, 3, padding_idx=0)
  (att): TransformerEncoder(
    (positionEnbeding): PositionEmbedding()
    (encoder_layers): ModuleList(
      (0-3): 4 x EncoderLayer(
        (mha): MultiHeadAttention(
          (WQ): Linear(in_features=40, out_features=40, bias=True)
          (WK): Linear(in_features=40, out_features=40, bias=True)
          (WV): Linear(in_features=40, out_features=40, bias=True)
          (scaled_dot_product_attn): ScaledDotProductAttention()
          (linear): Linear(in_features=40, out_features=40, bias=True)
        )
        (dropout1): Dropout(p=0, inplace=False)
        (layernorm1): LayerNorm((40,), eps=1e-06, elementwise_affine=True)
        (ffn): FeedForwardNetwork(
          (linear1): Linear(in_features=40, out_features=64, bias=True)
          (linear2): Linear(in_features=64, out_features=40, bias=True)
          (relu): LeakyReLU(negative_slope=0.01)
        )
        (dropout2): Dropout(p=0, inplace=False)
        (layernorm2): LayerNorm((40,), eps=1e-06, elementwise_affine=True)
      )
    )
  )
  (cls): Sequential(
    (0): Linear(in_features=40, out_features=64, bias=True)
    (1): Linear(in_features=64, out_features=128, bias=True)
    (2): Linear(in_features=128, out_features=230, bias=True)
  )
)
[2024-09-18 15:08:27,263][train.py][line:78][INFO] ---------------device---------------
cuda:3
[2024-09-18 15:08:27,263][train.py][line:79][INFO] ---------------optimizer---------------
AdamW (
Parameter Group 0
    amsgrad: False
    betas: (0.9, 0.999)
    capturable: False
    differentiable: False
    eps: 1e-08
    foreach: None
    fused: None
…
