…
Namespace(data_path='./data/Pymatgen_Wrapped/0', train_name='ConvAtt', model_path=None, learning_rate=0.0005, min_learning_rate=1e-05, start_scheduler_step=50, weight_decay=1e-06, momentum=0.99, batch_size=32, class_num=230, epoch_num=200, model_save_path='/data/ylh/MyExps/MOFV2/checkpoints/ConvAtt', device='1,3,5,7', scheduler_T=None, num_workers=20, log_name='log/train//train_ConvAtt_2024_09_08_15:36:05.log')
[2024-09-08 15:36:10,839][train.py][line:69][INFO] ---------------model---------------
DataParallel(
  (module): ConvAtt(
    (model): Sequential(
      (0): CAtBlock(
        (conv): ResBlock1D(
          (pre): Conv1d(2, 16, kernel_size=(1,), stride=(1,), bias=False)
          (conv): Sequential(
            (0): Conv1d(16, 16, kernel_size=(3,), stride=(1,), padding=(1,), bias=False)
            (1): BatchNorm1d(16, eps=1e-05, momentum=0.1, affine=True, track_running_stats=True)
            (2): LeakyReLU(negative_slope=0.01)
            (3): Conv1d(16, 16, kernel_size=(3,), stride=(1,), padding=(1,), bias=False)
            (4): BatchNorm1d(16, eps=1e-05, momentum=0.1, affine=True, track_running_stats=True)
          )
          (relu): LeakyReLU(negative_slope=0.01)
        )
        (pool): AvgPool1d(kernel_size=(2,), stride=(2,), padding=(0,))
        (att): TransformerEncoder(
          (positionEnbeding): PositionEmbedding()
          (encoder_layers): ModuleList(
            (0): EncoderLayer(
              (mha): MultiHeadAttention(
                (WQ): Linear(in_features=16, out_features=16, bias=True)
                (WK): Linear(in_features=16, out_features=16, bias=True)
                (WV): Linear(in_features=16, out_features=16, bias=True)
                (scaled_dot_product_attn): ScaledDotProductAttention()
                (linear): Linear(in_features=16, out_features=16, bias=True)
              )
              (dropout1): Dropout(p=0, inplace=False)
              (layernorm1): LayerNorm((16,), eps=1e-06, elementwise_affine=True)
              (ffn): FeedForwardNetwork(
                (linear1): Linear(in_features=16, out_features=32, bias=True)
                (linear2): Linear(in_features=32, out_features=16, bias=True)
                (relu): LeakyReLU(negative_slope=0.01)
              )
              (dropout2): Dropout(p=0, inplace=False)
              (layernorm2): LayerNorm((16,), eps=1e-06, elementwise_affine=True)
            )
          )
        )
      )
      (1): CAtBlock(
        (conv): ResBlock1D(
          (pre): Identity()
          (conv): Sequential(
            (0): Conv1d(16, 16, kernel_size=(3,), stride=(1,), padding=(1,), bias=False)
            (1): BatchNorm1d(16, eps=1e-05, momentum=0.1, affine=True, track_running_stats=True)
            (2): LeakyReLU(negative_slope=0.01)
            (3): Conv1d(16, 16, kernel_size=(3,), stride=(1,), padding=(1,), bias=False)
            (4): BatchNorm1d(16, eps=1e-05, momentum=0.1, affine=True, track_running_stats=True)
          )
          (relu): LeakyReLU(negative_slope=0.01)
        )
        (pool): AvgPool1d(kernel_size=(2,), stride=(2,), padding=(0,))
        (att): TransformerEncoder(
          (positionEnbeding): PositionEmbedding()
          (encoder_layers): ModuleList(
            (0): EncoderLayer(
              (mha): MultiHeadAttention(
                (WQ): Linear(in_features=16, out_features=16, bias=True)
                (WK): Linear(in_features=16, out_features=16, bias=True)
                (WV): Linear(in_features=16, out_features=16, bias=True)
                (scaled_dot_product_attn): ScaledDotProductAttention()
                (linear): Linear(in_features=16, out_features=16, bias=True)
              )
              (dropout1): Dropout(p=0, inplace=False)
              (layernorm1): LayerNorm((16,), eps=1e-06, elementwise_affine=True)
              (ffn): FeedForwardNetwork(
                (linear1): Linear(in_features=16, out_features=32, bias=True)
                (linear2): Linear(in_features=32, out_features=16, bias=True)
                (relu): LeakyReLU(negative_slope=0.01)
              )
              (dropout2): Dropout(p=0, inplace=False)
              (layernorm2): LayerNorm((16,), eps=1e-06, elementwise_affine=True)
            )
          )
        )
      )
      (2): CAtBlock(
        (conv): ResBlock1D(
          (pre): Conv1d(16, 32, kernel_size=(1,), stride=(1,), bias=False)
          (conv): Sequential(
            (0): Conv1d(32, 32, kernel_size=(3,), stride=(1,), padding=(1,), bias=False)
            (1): BatchNorm1d(32, eps=1e-05, momentum=0.1, affine=True, track_running_stats=True)
            (2): LeakyReLU(negative_slope=0.01)
            (3): Conv1d(32, 32, kernel_size=(3,), stride=(1,), padding=(1,), bias=False)
            (4): BatchNorm1d(32, eps=1e-05, momentum=0.1, affine=True, track_running_stats=True)
          )
          (relu): LeakyReLU(negative_slope=0.01)
        )
        (pool): AvgPool1d(kernel_size=(2,), stride=(2,), padding=(1,))
        (att): TransformerEncoder(
          (positionEnbeding): PositionEmbedding()
          (encoder_layers): ModuleList(
            (0): EncoderLayer(
              (mha): MultiHeadAttention(
                (WQ): Linear(in_features=32, out_features=32, bias=True)
                (WK): Linear(in_features=32, out_features=32, bias=True)
                (WV): Linear(in_features=32, out_features=32, bias=True)
                (scaled_dot_product_attn): ScaledDotProductAttention()
                (linear): Linear(in_features=32, out_features=32, bias=True)
              )
              (dropout1): Dropout(p=0, inplace=False)
              (layernorm1): LayerNorm((32,), eps=1e-06, elementwise_affine=True)
              (ffn): FeedForwardNetwork(
                (linear1): Linear(in_features=32, out_features=64, bias=True)
                (linear2): Linear(in_features=64, out_features=32, bias=True)
                (relu): LeakyReLU(negative_slope=0.01)
              )
              (dropout2): Dropout(p=0, inplace=False)
              (layernorm2): LayerNorm((32,), eps=1e-06, elementwise_affine=True)
            )
          )
        )
      )
      (3): CAtBlock(
        (conv): ResBlock1D(
          (pre): Identity()
          (conv): Sequential(
            (0): Conv1d(32, 32, kernel_size=(3,), stride=(1,), padding=(1,), bias=False)
            (1): BatchNorm1d(32, eps=1e-05, momentum=0.1, affine=True, track_running_stats=True)
            (2): LeakyReLU(negative_slope=0.01)
            (3): Conv1d(32, 32, kernel_size=(3,), stride=(1,), padding=(1,), bias=False)
            (4): BatchNorm1d(32, eps=1e-05, momentum=0.1, affine=True, track_running_stats=True)
          )
          (relu): LeakyReLU(negative_slope=0.01)
        )
        (pool): AvgPool1d(kernel_size=(2,), stride=(2,), padding=(1,))
        (att): TransformerEncoder(
          (positionEnbeding): PositionEmbedding()
          (encoder_layers): ModuleList(
            (0): EncoderLayer(
              (mha): MultiHeadAttention(
                (WQ): Linear(in_features=32, out_features=32, bias=True)
                (WK): Linear(in_features=32, out_features=32, bias=True)
                (WV): Linear(in_features=32, out_features=32, bias=True)
                (scaled_dot_product_attn): ScaledDotProductAttention()
                (linear): Linear(in_features=32, out_features=32, bias=True)
              )
              (dropout1): Dropout(p=0, inplace=False)
              (layernorm1): LayerNorm((32,), eps=1e-06, elementwise_affine=True)
              (ffn): FeedForwardNetwork(
                (linear1): Linear(in_features=32, out_features=64, bias=True)
                (linear2): Linear(in_features=64, out_features=32, bias=True)
                (relu): LeakyReLU(negative_slope=0.01)
              )
              (dropout2): Dropout(p=0, inplace=False)
              (layernorm2): LayerNorm((32,), eps=1e-06, elementwise_affine=True)
            )
          )
        )
      )
      (4): CAtBlock(
        (conv): ResBlock1D(
          (pre): Conv1d(32, 64, kernel_size=(1,), stride=(1,), bias=False)
          (conv): Sequential(
            (0): Conv1d(64, 64, kernel_size=(3,), stride=(1,), padding=(1,), bias=False)
            (1): BatchNorm1d(64, eps=1e-05, momentum=0.1, affine=True, track_running_stats=True)
            (2): LeakyReLU(negative_slope=0.01)
            (3): Conv1d(64, 64, kernel_size=(3,), stride=(1,), padding=(1,), bias=False)
            (4): BatchNorm1d(64, eps=1e-05, momentum=0.1, affine=True, track_running_stats=True)
          )
          (relu): LeakyReLU(negative_slope=0.01)
        )
        (pool): AvgPool1d(kernel_size=(2,), stride=(2,), padding=(0,))
        (att): TransformerEncoder(
          (positionEnbeding): PositionEmbedding()
          (encoder_layers): ModuleList(
            (0): EncoderLayer(
              (mha): MultiHeadAttention(
                (WQ): Linear(in_features=64, out_features=64, bias=True)
                (WK): Linear(in_features=64, out_features=64, bias=True)
                (WV): Linear(in_features=64, out_features=64, bias=True)
                (scaled_dot_product_attn): ScaledDotProductAttention()
                (linear): Linear(in_features=64, out_features=64, bias=True)
              )
              (dropout1): Dropout(p=0, inplace=False)
              (layernorm1): LayerNorm((64,), eps=1e-06, elementwise_affine=True)
              (ffn): FeedForwardNetwork(
                (linear1): Linear(in_features=64, out_features=128, bias=True)
                (linear2): Linear(in_features=128, out_features=64, bias=True)
                (relu): LeakyReLU(negative_slope=0.01)
              )
              (dropout2): Dropout(p=0, inplace=False)
              (layernorm2): LayerNorm((64,), eps=1e-06, elementwise_affine=True)
            )
          )
        )
      )
      (5): CAtBlock(
        (conv): ResBlock1D(
          (pre): Identity()
          (conv): Sequential(
            (0): Conv1d(64, 64, kernel_size=(3,), stride=(1,), padding=(1,), bias=False)
            (1): BatchNorm1d(64, eps=1e-05, momentum=0.1, affine=True, track_running_stats=True)
            (2): LeakyReLU(negative_slope=0.01)
            (3): Conv1d(64, 64, kernel_size=(3,), stride=(1,), padding=(1,), bias=False)
            (4): BatchNorm1d(64, eps=1e-05, momentum=0.1, affine=True, track_running_stats=True)
          )
          (relu): LeakyReLU(negative_slope=0.01)
        )
        (pool): AvgPool1d(kernel_size=(2,), stride=(2,), padding=(0,))
        (att): TransformerEncoder(
          (positionEnbeding): PositionEmbedding()
          (encoder_layers): ModuleList(
            (0): EncoderLayer(
              (mha): MultiHeadAttention(
                (WQ): Linear(in_features=64, out_features=64, bias=True)
                (WK): Linear(in_features=64, out_features=64, bias=True)
                (WV): Linear(in_features=64, out_features=64, bias=True)
                (scaled_dot_product_attn): ScaledDotProductAttention()
                (linear): Linear(in_features=64, out_features=64, bias=True)
              )
              (dropout1): Dropout(p=0, inplace=False)
              (layernorm1): LayerNorm((64,), eps=1e-06, elementwise_affine=True)
              (ffn): FeedForwardNetwork(
                (linear1): Linear(in_features=64, out_features=128, bias=True)
                (linear2): Linear(in_features=128, out_features=64, bias=True)
                (relu): LeakyReLU(negative_slope=0.01)
              )
              (dropout2): Dropout(p=0, inplace=False)
              (layernorm2): LayerNorm((64,), eps=1e-06, elementwise_affine=True)
            )
          )
        )
      )
      (6): CAtBlock(
        (conv): ResBlock1D(
          (pre): Conv1d(64, 128, kernel_size=(1,), stride=(1,), bias=False)
          (conv): Sequential(
            (0): Conv1d(128, 128, kernel_size=(3,), stride=(1,), padding=(1,), bias=False)
            (1): BatchNorm1d(128, eps=1e-05, momentum=0.1, affine=True, track_running_stats=True)
            (2): LeakyReLU(negative_slope=0.01)
            (3): Conv1d(128, 128, kernel_size=(3,), stride=(1,), padding=(1,), bias=False)
            (4): BatchNorm1d(128, eps=1e-05, momentum=0.1, affine=True, track_running_stats=True)
          )
          (relu): LeakyReLU(negative_slope=0.01)
        )
        (pool): AvgPool1d(kernel_size=(2,), stride=(2,), padding=(1,))
        (att): TransformerEncoder(
          (positionEnbeding): PositionEmbedding()
          (encoder_layers): ModuleList(
            (0): EncoderLayer(
              (mha): MultiHeadAttention(
                (WQ): Linear(in_features=128, out_features=128, bias=True)
                (WK): Linear(in_features=128, out_features=128, bias=True)
                (WV): Linear(in_features=128, out_features=128, bias=True)
                (scaled_dot_product_attn): ScaledDotProductAttention()
                (linear): Linear(in_features=128, out_features=128, bias=True)
              )
              (dropout1): Dropout(p=0, inplace=False)
              (layernorm1): LayerNorm((128,), eps=1e-06, elementwise_affine=True)
              (ffn): FeedForwardNetwork(
                (linear1): Linear(in_features=128, out_features=256, bias=True)
                (linear2): Linear(in_features=256, out_features=128, bias=True)
                (relu): LeakyReLU(negative_slope=0.01)
              )
              (dropout2): Dropout(p=0, inplace=False)
              (layernorm2): LayerNorm((128,), eps=1e-06, elementwise_affine=True)
            )
          )
        )
      )
      (7): CAtBlock(
        (conv): ResBlock1D(
          (pre): Identity()
          (conv): Sequential(
            (0): Conv1d(128, 128, kernel_size=(3,), stride=(1,), padding=(1,), bias=False)
            (1): BatchNorm1d(128, eps=1e-05, momentum=0.1, affine=True, track_running_stats=True)
            (2): LeakyReLU(negative_slope=0.01)
            (3): Conv1d(128, 128, kernel_size=(3,), stride=(1,), padding=(1,), bias=False)
            (4): BatchNorm1d(128, eps=1e-05, momentum=0.1, affine=True, track_running_stats=True)
          )
          (relu): LeakyReLU(negative_slope=0.01)
        )
        (pool): AvgPool1d(kernel_size=(2,), stride=(2,), padding=(1,))
        (att): TransformerEncoder(
          (positionEnbeding): PositionEmbedding()
          (encoder_layers): ModuleList(
            (0): EncoderLayer(
              (mha): MultiHeadAttention(
                (WQ): Linear(in_features=128, out_features=128, bias=True)
                (WK): Linear(in_features=128, out_features=128, bias=True)
                (WV): Linear(in_features=128, out_features=128, bias=True)
                (scaled_dot_product_attn): ScaledDotProductAttention()
                (linear): Linear(in_features=128, out_features=128, bias=True)
              )
              (dropout1): Dropout(p=0, inplace=False)
              (layernorm1): LayerNorm((128,), eps=1e-06, elementwise_affine=True)
              (ffn): FeedForwardNetwork(
                (linear1): Linear(in_features=128, out_features=256, bias=True)
                (linear2): Linear(in_features=256, out_features=128, bias=True)
                (relu): LeakyReLU(negative_slope=0.01)
              )
              (dropout2): Dropout(p=0, inplace=False)
              (layernorm2): LayerNorm((128,), eps=1e-06, elementwise_affine=True)
            )
          )
        )
      )
      (8): CAtBlock(
        (conv): ResBlock1D(
          (pre): Conv1d(128, 256, kernel_size=(1,), stride=(1,), bias=False)
          (conv): Sequential(
            (0): Conv1d(256, 256, kernel_size=(3,), stride=(1,), padding=(1,), bias=False)
            (1): BatchNorm1d(256, eps=1e-05, momentum=0.1, affine=True, track_running_stats=True)
            (2): LeakyReLU(negative_slope=0.01)
            (3): Conv1d(256, 256, kernel_size=(3,), stride=(1,), padding=(1,), bias=False)
            (4): BatchNorm1d(256, eps=1e-05, momentum=0.1, affine=True, track_running_stats=True)
          )
          (relu): LeakyReLU(negative_slope=0.01)
        )
        (pool): AvgPool1d(kernel_size=(2,), stride=(2,), padding=(0,))
        (att): TransformerEncoder(
          (positionEnbeding): PositionEmbedding()
          (encoder_layers): ModuleList(
            (0): EncoderLayer(
              (mha): MultiHeadAttention(
                (WQ): Linear(in_features=256, out_features=256, bias=True)
                (WK): Linear(in_features=256, out_features=256, bias=True)
                (WV): Linear(in_features=256, out_features=256, bias=True)
                (scaled_dot_product_attn): ScaledDotProductAttention()
                (linear): Linear(in_features=256, out_features=256, bias=True)
              )
              (dropout1): Dropout(p=0, inplace=False)
              (layernorm1): LayerNorm((256,), eps=1e-06, elementwise_affine=True)
              (ffn): FeedForwardNetwork(
                (linear1): Linear(in_features=256, out_features=512, bias=True)
                (linear2): Linear(in_features=512, out_features=256, bias=True)
                (relu): LeakyReLU(negative_slope=0.01)
              )
              (dropout2): Dropout(p=0, inplace=False)
              (layernorm2): LayerNorm((256,), eps=1e-06, elementwise_affine=True)
            )
          )
        )
      )
      (9): CAtBlock(
        (conv): ResBlock1D(
          (pre): Identity()
          (conv): Sequential(
            (0): Conv1d(256, 256, kernel_size=(3,), stride=(1,), padding=(1,), bias=False)
            (1): BatchNorm1d(256, eps=1e-05, momentum=0.1, affine=True, track_running_stats=True)
            (2): LeakyReLU(negative_slope=0.01)
            (3): Conv1d(256, 256, kernel_size=(3,), stride=(1,), padding=(1,), bias=False)
            (4): BatchNorm1d(256, eps=1e-05, momentum=0.1, affine=True, track_running_stats=True)
          )
          (relu): LeakyReLU(negative_slope=0.01)
        )
        (pool): AvgPool1d(kernel_size=(2,), stride=(2,), padding=(1,))
        (att): TransformerEncoder(
          (positionEnbeding): PositionEmbedding()
          (encoder_layers): ModuleList(
            (0): EncoderLayer(
              (mha): MultiHeadAttention(
                (WQ): Linear(in_features=256, out_features=256, bias=True)
                (WK): Linear(in_features=256, out_features=256, bias=True)
                (WV): Linear(in_features=256, out_features=256, bias=True)
                (scaled_dot_product_attn): ScaledDotProductAttention()
                (linear): Linear(in_features=256, out_features=256, bias=True)
              )
              (dropout1): Dropout(p=0, inplace=False)
              (layernorm1): LayerNorm((256,), eps=1e-06, elementwise_affine=True)
              (ffn): FeedForwardNetwork(
                (linear1): Linear(in_features=256, out_features=512, bias=True)
                (linear2): Linear(in_features=512, out_features=256, bias=True)
                (relu): LeakyReLU(negative_slope=0.01)
              )
              (dropout2): Dropout(p=0, inplace=False)
              (layernorm2): LayerNorm((256,), eps=1e-06, elementwise_affine=True)
            )
          )
        )
      )
      (10): CAtBlock(
        (conv): ResBlock1D(
          (pre): Conv1d(256, 512, kernel_size=(1,), stride=(1,), bias=False)
          (conv): Sequential(
            (0): Conv1d(512, 512, kernel_size=(3,), stride=(1,), padding=(1,), bias=False)
            (1): BatchNorm1d(512, eps=1e-05, momentum=0.1, affine=True, track_running_stats=True)
            (2): LeakyReLU(negative_slope=0.01)
            (3): Conv1d(512, 512, kernel_size=(3,), stride=(1,), padding=(1,), bias=False)
            (4): BatchNorm1d(512, eps=1e-05, momentum=0.1, affine=True, track_running_stats=True)
          )
          (relu): LeakyReLU(negative_slope=0.01)
        )
        (pool): AvgPool1d(kernel_size=(2,), stride=(2,), padding=(1,))
        (att): TransformerEncoder(
          (positionEnbeding): PositionEmbedding()
          (encoder_layers): ModuleList(
            (0): EncoderLayer(
              (mha): MultiHeadAttention(
                (WQ): Linear(in_features=512, out_features=512, bias=True)
                (WK): Linear(in_features=512, out_features=512, bias=True)
                (WV): Linear(in_features=512, out_features=512, bias=True)
                (scaled_dot_product_attn): ScaledDotProductAttention()
                (linear): Linear(in_features=512, out_features=512, bias=True)
              )
              (dropout1): Dropout(p=0, inplace=False)
              (layernorm1): LayerNorm((512,), eps=1e-06, elementwise_affine=True)
              (ffn): FeedForwardNetwork(
                (linear1): Linear(in_features=512, out_features=1024, bias=True)
                (linear2): Linear(in_features=1024, out_features=512, bias=True)
                (relu): LeakyReLU(negative_slope=0.01)
              )
              (dropout2): Dropout(p=0, inplace=False)
              (layernorm2): LayerNorm((512,), eps=1e-06, elementwise_affine=True)
            )
          )
        )
      )
      (11): CAtBlock(
        (conv): ResBlock1D(
          (pre): Identity()
          (conv): Sequential(
            (0): Conv1d(512, 512, kernel_size=(3,), stride=(1,), padding=(1,), bias=False)
            (1): BatchNorm1d(512, eps=1e-05, momentum=0.1, affine=True, track_running_stats=True)
            (2): LeakyReLU(negative_slope=0.01)
            (3): Conv1d(512, 512, kernel_size=(3,), stride=(1,), padding=(1,), bias=False)
            (4): BatchNorm1d(512, eps=1e-05, momentum=0.1, affine=True, track_running_stats=True)
          )
          (relu): LeakyReLU(negative_slope=0.01)
        )
        (pool): AvgPool1d(kernel_size=(2,), stride=(2,), padding=(1,))
        (att): TransformerEncoder(
          (positionEnbeding): PositionEmbedding()
          (encoder_layers): ModuleList(
            (0): EncoderLayer(
              (mha): MultiHeadAttention(
                (WQ): Linear(in_features=512, out_features=512, bias=True)
                (WK): Linear(in_features=512, out_features=512, bias=True)
                (WV): Linear(in_features=512, out_features=512, bias=True)
                (scaled_dot_product_attn): ScaledDotProductAttention()
                (linear): Linear(in_features=512, out_features=512, bias=True)
              )
              (dropout1): Dropout(p=0, inplace=False)
              (layernorm1): LayerNorm((512,), eps=1e-06, elementwise_affine=True)
              (ffn): FeedForwardNetwork(
                (linear1): Linear(in_features=512, out_features=1024, bias=True)
                (linear2): Linear(in_features=1024, out_features=512, bias=True)
                (relu): LeakyReLU(negative_slope=0.01)
              )
              (dropout2): Dropout(p=0, inplace=False)
              (layernorm2): LayerNorm((512,), eps=1e-06, elementwise_affine=True)
            )
          )
        )
      )
      (12): CAtBlock(
        (conv): ResBlock1D(
          (pre): Conv1d(512, 1024, kernel_size=(1,), stride=(1,), bias=False)
          (conv): Sequential(
            (0): Conv1d(1024, 1024, kernel_size=(3,), stride=(1,), padding=(1,), bias=False)
            (1): BatchNorm1d(1024, eps=1e-05, momentum=0.1, affine=True, track_running_stats=True)
            (2): LeakyReLU(negative_slope=0.01)
            (3): Conv1d(1024, 1024, kernel_size=(3,), stride=(1,), padding=(1,), bias=False)
            (4): BatchNorm1d(1024, eps=1e-05, momentum=0.1, affine=True, track_running_stats=True)
          )
          (relu): LeakyReLU(negative_slope=0.01)
        )
        (pool): AvgPool1d(kernel_size=(2,), stride=(2,), padding=(1,))
        (att): TransformerEncoder(
          (positionEnbeding): PositionEmbedding()
          (encoder_layers): ModuleList(
            (0): EncoderLayer(
              (mha): MultiHeadAttention(
                (WQ): Linear(in_features=1024, out_features=1024, bias=True)
                (WK): Linear(in_features=1024, out_features=1024, bias=True)
                (WV): Linear(in_features=1024, out_features=1024, bias=True)
                (scaled_dot_product_attn): ScaledDotProductAttention()
                (linear): Linear(in_features=1024, out_features=1024, bias=True)
              )
              (dropout1): Dropout(p=0, inplace=False)
              (layernorm1): LayerNorm((1024,), eps=1e-06, elementwise_affine=True)
              (ffn): FeedForwardNetwork(
                (linear1): Linear(in_features=1024, out_features=2048, bias=True)
                (linear2): Linear(in_features=2048, out_features=1024, bias=True)
                (relu): LeakyReLU(negative_slope=0.01)
              )
              (dropout2): Dropout(p=0, inplace=False)
              (layernorm2): LayerNorm((1024,), eps=1e-06, elementwise_affine=True)
            )
          )
        )
      )
      (13): CAtBlock(
        (conv): ResBlock1D(
          (pre): Identity()
          (conv): Sequential(
            (0): Conv1d(1024, 1024, kernel_size=(3,), stride=(1,), padding=(1,), bias=False)
            (1): BatchNorm1d(1024, eps=1e-05, momentum=0.1, affine=True, track_running_stats=True)
            (2): LeakyReLU(negative_slope=0.01)
            (3): Conv1d(1024, 1024, kernel_size=(3,), stride=(1,), padding=(1,), bias=False)
            (4): BatchNorm1d(1024, eps=1e-05, momentum=0.1, affine=True, track_running_stats=True)
          )
          (relu): LeakyReLU(negative_slope=0.01)
        )
        (pool): AvgPool1d(kernel_size=(2,), stride=(2,), padding=(0,))
        (att): TransformerEncoder(
          (positionEnbeding): PositionEmbedding()
          (encoder_layers): ModuleList(
            (0): EncoderLayer(
              (mha): MultiHeadAttention(
                (WQ): Linear(in_features=1024, out_features=1024, bias=True)
                (WK): Linear(in_features=1024, out_features=1024, bias=True)
                (WV): Linear(in_features=1024, out_features=1024, bias=True)
                (scaled_dot_product_attn): ScaledDotProductAttention()
                (linear): Linear(in_features=1024, out_features=1024, bias=True)
              )
              (dropout1): Dropout(p=0, inplace=False)
              (layernorm1): LayerNorm((1024,), eps=1e-06, elementwise_affine=True)
              (ffn): FeedForwardNetwork(
                (linear1): Linear(in_features=1024, out_features=2048, bias=True)
                (linear2): Linear(in_features=2048, out_features=1024, bias=True)
                (relu): LeakyReLU(negative_slope=0.01)
              )
              (dropout2): Dropout(p=0, inplace=False)
              (layernorm2): LayerNorm((1024,), eps=1e-06, elementwise_affine=True)
            )
          )
        )
      )
    )
    (cls): Linear(in_features=1024, out_features=230, bias=True)
  )
)
[2024-09-08 15:36:10,840][train.py][line:70][INFO] ---------------device---------------
cuda:1
[2024-09-08 15:36:10,840][train.py][line:71][INFO] ---------------optimizer---------------
AdamW (
Parameter Group 0
    amsgrad: False
    betas: (0.9, 0.999)
    capturable: False
    differentiable: False
    eps: 1e-08
    foreach: None
    fused: None
…
